project/cnn_model_2d_checkpoint.ckpt (torch, 471177 bytes, 26 tensors)

cnn.0.weight f4 [16, 1, 3, 3]
0.12296315 0.18008131 -0.056165237 -0.1562997 -0.3281871 -0.048847377 0.07126125 -0.06695799
0.25717506 0.09689863 -0.21671204 -0.0916535 -0.2023853 -0.21076941 -0.26016593 -0.12228862
0.019850701 -0.25301322 0.18261647 -0.23600918 -0.30439854 -0.038234603 -0.05941435 0.16917202
0.060278445 -0.270322 0.12633264 0.06406365 0.26285315 0.10297912 -0.046371054 0.011750681
-0.27408627 -0.2119271 0.23450309 -0.056279797 -0.20717032 -0.295974 0.3297099 -0.038511146
-0.1924814 0.15817341 -0.07392698 0.116752654 0.16845548 -0.020313377 -0.12659834 -0.22330108
-0.05372689 -0.19149381 -0.1581758 -0.26014158 -0.14718111 -0.25270808 0.05706412 -0.15963565
0.08839017 0.066833675 0.10966057 0.16418006 -0.20610222 -0.0071192994 -0.1935095 -0.22987418
0.16120419 -0.08503046 -0.10721258 -0.081584014 -0.25800785 -0.29216608 0.18279928 0.23826586
-0.0003813374 -0.1482289 0.27261898 -0.22843374 -0.042609178 0.23885831 -0.10213688 0.2192932
0.25216132 0.010597494 -0.15666842 -0.26854685 0.17703737 0.09020718 -0.04886017 -0.029649362
0.14598024 0.12932429 0.31489775 -0.28850067 0.02908535 0.13497882 -0.2861909 -0.1183322
0.2286105 -0.20121044 0.15613078 0.14449984 0.13290118 0.0051055592 0.13998646 -0.0025258763
-0.25539955 0.26741126 -0.24034381 -0.07435018 -0.059705853 0.22830528 -0.26176637 0.28130716
-0.30772135 0.18041581 0.0130609 -0.006441167 -0.113820635 -0.24358746 -0.11300081 -0.13982768
-0.23186362 -0.22390474 0.28712675 0.0146589335 0.09622785 -0.2571864 0.31904683 -0.07284185
0.21344 -0.2278025 0.2881169 -0.18169612 0.13559523 -0.26459947 -0.07125596 -0.02675767
0.256563 0.074359186 0.15346108 -0.23501617 0.08858871 -0.045833044 -0.18045193 0.2562678
00000000: 1bd4 fb3d 3c67 383e 850d 66bd 070d 20be
00000010: 2408 a8be 3014 48bd 6bf1 913d 4521 89bd
00000020: 73ac 833e ca72 c63d c3e9 5dbe d5b4 bbbd
00000030: 183e 4fbe f0d3 57be 7834 85be 7572 fabd
00000040: f09d a23c f38a 81be d0ff 3a3e 64ac 71be
00000050: 20da 9bbe e39b 1cbd 765c 73bd 6e3b 2d3e
00000060: 88e6 763d a567 8abe 585d 013e ce33 833d
00000070: b094 863e b8e6 d23d 93ef 3dbd ee85 403c
00000080: 0955 8cbe 6b03 59be 9421 703e a585 66bd
00000090: 7524 54be e789 97be bccf a83e ddbd 1dbd
000000a0: d819 45be 36f8 213e 0767 97bd 041c ef3d
000000b0: 987f 2c3e 3d68 a6bc ffa2 01be 0aa9 64be
000000c0: ba10 5cbd f416 44be d6f8 21be 4731 85be
000000d0: a5b6 16be f462 81be 11bc 693d 8777 23be
000000e0: e805 b53d 18e0 883d b995 e03d d11e 283e
000000f0: 760c 53be 0349 e9bb 5b27 46be 2364 6bbe
00000100: b612 253e 7324 aebd 4592 dbbd 8515 a7bd
00000110: 9b19 84be cb96 95be bc2f 3b3e f7fb 733e
00000120: 3dee c7b9 51c9 17be b794 8b3e 89ea 69be
00000130: f686 2ebd 4697 743e 242d d1bd 668e 603e
00000140: 4a1b 813e 1da1 2d3c b06d 20be f97e 89be
00000150: 4949 353e 8bbe b83d 9a21 48bd 38e3 f2bc
00000160: d87b 153e 966d 043e 473a a13e 5cb6 93be
00000170: 6644 ee3c e337 0a3e 9d87 92be 2758 f2bd
00000180: df18 6a3e 1c0a 4ebe bfe0 1f3e c4f7 133e
00000190: 3f17 083e 894c a73b 9c58 0f3e 2c89 25bb
000001a0: bbc3 82be 21ea 883e b01c 76be e844 98bd
000001b0: 208e 74bd dcc8 693e 3e06 86be 7e07 903e
000001c0: a78d 9dbe ecbe 383e 63fd 553c 6d10 d3bb
000001d0: cb1a e9bd fe6e 79be f86c e7bd fd2e 0fbe
000001e0: a86d 6dbe 4947 65be 4702 933e 062c 703c
000001f0: 1b13 c53d f0ad 83be 1b5a a33e 1c2e 95bd
00000200: 0490 5a3e 0f45 69be 0f84 933e 8c0e 3abe
00000210: 7ad9 0a3e 9579 87be a5ee 91bd e732 dbbc
00000220: 3a5c 833e a149 983d e724 1d3e 14a8 70be
00000230: ff6d b53d 6ebb 3bbd 64c8 38be 8835 833e

cnn.0.bias f4 [16]
-0.22880775 0.1202527 0.025794597 0.07435391 0.23301701 -0.18888943 -0.09515765 -0.28142378
0.0057046283 0.28161252 0.199992 0.16328189 0.0735384 0.21389481 -0.13209648 -0.099106
00000000: 944c 6abe 0c47 f63d 314f d33c dd46 983d
00000010: 039c 6e3e 3b6c 41be 04e2 c2bd c716 90be
00000020: e4ed ba3b 842f 903e b4ca 4c3e 5e33 273e
00000030: 4d9b 963d 3e07 5b3e 4d44 07be 16f8 cabd

cnn.1.weight f4 [16]
0.9946188 0.9999395 0.99254143 0.9930358 0.99040574 0.9970421 0.99528325 0.99514496
1.0019267 1.0263628 0.9936661 1.0075977 0.997994 1.0010998 0.9991062 1.0065414
00000000: 569f 7e3f 09fc 7f3f 3217 7e3f 9837 7e3f
00000010: 3b8b 7d3f 273e 7f3f e2ca 7e3f d2c1 7e3f
00000020: 223f 803f db5f 833f e760 7e3f f6f8 803f
00000030: 897c 7f3f 0a24 803f 6dc5 7f3f 59d6 803f

cnn.1.bias f4 [16]
-0.025986489 -0.007184287 0.0012205059 -0.029963046 -0.010336174 -0.010171821 0.0033132045 -0.013081757
-0.015573983 -0.026905337 -0.011329077 -0.025616106 0.0026933781 0.0025286442 -0.026055563 -0.012832932
00000000: 9ee1 d4bc 2b6a ebbb 62f9 9f3a 1075 f5bc
00000010: 0e59 29bc b6a7 26bc 5922 593b de54 56bc
00000020: 052a 7fbc 9568 dcbc 989d 39bc ded8 d1bc
00000030: 6383 303b 9cb7 253b 7a72 d5bc 3841 52bc

cnn.1.running_mean f4 [16]
0.49843413 36.364113 10.822501 -2.468288 1.2344459 41.715416 2.2654645 13.484316
-13.484848 -1.1845347 1.0838096 -3.2604914 1.4305708 23.910564 -4.146202 -10.057678
00000000: c232 ff3e da74 1142 f728 2d41 6ef8 1dc0
00000010: 5302 9e3f 96dc 2642 5ffd 1040 c2bf 5741
00000020: f0c1 57c1 d59e 97bf 46ba 8a3f e4ab 50c0
00000030: f21c b73f d648 bf41 b0ad 84c0 40ec 20c1

cnn.1.running_var f4 [16]
4.7114415 1724.7766 160.30426 14.992678 28.034622 2297.195 10.515578 255.74855
265.85513 12.660101 16.65112 35.701637 7.3754077 739.2136 28.949299 132.53572
00000000: 21c4 9640 da98 d744 e44d 2043 02e2 6f41
00000010: e846 e041 1f93 0f45 cf3f 2841 a1bf 7f43
00000020: 75ed 8443 c68f 4a41 7e35 8541 7ace 0e42
00000030: 5703 ec40 accd 3844 2a98 e741 2589 0443

cnn.5.weight f4 [32, 16, 3, 3]
0.09332106 -0.011393508 -0.0029801289 0.06893381 0.061890874 -0.04231954 -0.029851258 0.03486307
-0.042836033 0.08023573 0.012660232 0.037026115 0.07018995 -0.059088234 -0.02447208 0.055236187
0.056757033 0.014931715 -0.022362566 0.07335827 -0.030948257 -0.020223437 0.020634111 0.06504834
-0.06438621 -0.0047520283 -0.060362548 0.057120856 -0.030380975 -0.07510757 -0.010899799 0.03155044
0.030434512 0.068686806 -0.040384006 0.032293845 0.03780624 -0.05186164 -0.02211265 -0.06849847
0.0050605107 -0.05675873 0.08654259 0.014981553 -0.01477368 0.011281701 -0.0014556749 0.06290044
0.076197416 -0.0059864884 -0.04603296 -0.015068235 -0.08017867 0.07225458 -0.014180561 -0.032730706
-0.0049955864 0.011614766 0.06292494 -0.056878615 0.04033706 0.007793195 0.07213076 -0.061138332
0.0042655873 0.05378092 0.009606293 -0.027990887 -0.04187484 0.050192643 0.06701908 -0.075714916
-0.020948483 -0.04404191 0.0759291 -0.055085346 0.038123872 -0.04754066 -0.026369536 -0.07033633
-0.07322207 0.075572275 0.03443676 0.016206434 0.036670953 -0.012370273 -0.052131727 0.022429118
-0.017244099 0.068020955 0.028800381 0.08249055 0.06767682 0.077308916 -0.07204263 0.071732625
0.016080448 0.055288766 -0.018197827 0.0825242 0.08987564 0.009018816 0.028043931 -0.028994098
-0.035164963 -0.042224597 0.068061054 0.09891003 0.03099634 0.0050581065 -0.048673276 0.07072113
0.01882177 0.01808999 0.07454991 -0.06419172 0.08072435 -0.021701647 -0.05857845 0.06829022
-0.0064360183 -0.07796388 -0.06469049 0.058789317 0.0070059285 0.034902375 -0.066419154 0.07004899
-0.008540304 -0.043761116 -0.071710676 -0.0034492428 -0.028031616 -0.035525564 0.0027016571 0.06424463
0.016736025 0.07143456 0.05436305 0.045113366 0.044158395 0.07157131 0.012270802 -0.04851805
-0.0059538838 -0.039969504 0.00849891 -0.045270458 -0.02635108 0.016895661 0.06848206 -0.00586622
-0.0098796515 -0.05492891 -0.04515904 0.012564513 -0.02032697 -0.06652308 0.036999222 0.0642544
0.06244976 -0.0064882794 0.019138716 0.06547353 0.04809311 0.045639206 0.076777 0.023172066
0.057643097 -0.057592403 -0.04390266 -0.083678104 0.036374427 -0.08491623 0.05244598 -0.037792668
0.013709746 -0.032906305 0.032225717 0.03957766 -0.025637353 0.021815564 0.0032699397 -0.065841444
0.031007947 0.0041700234 -0.07164177 -0.063708656 -0.011135903 -0.06294467 -0.0605802 0.04237672
-0.041047074 0.07085966 -0.04297095 0.07428719 -0.072376706 -0.042776704 -0.07375656 -0.080053605
-0.07592305 0.014049428 -0.074449144 -0.052172184 -0.02129575 0.022666363 -0.033311088 -0.036041655
-0.021930989 -0.076140136 -0.07791075 -0.03098249 -0.028593602 0.027452575 0.06352903 -0.044295706
-0.053772684 0.011041123 -0.06495988 -0.06335814 -0.05703372 0.018244086 -0.06344244 -0.04762109
-0.081279695 0.091749035 0.07760989 0.048532236 0.0061141783 -0.031977113 -0.034044877 0.048341136
0.06673898 -0.015506929 0.057867058 0.028254366 0.04992912 0.04548386 -0.06846227 -0.001450923
-0.03368961 -0.05274759 -0.063091666 0.035674624 0.022077367 0.007970446 -0.0012205009 -0.016038598
0.070510514 0.017137036 0.061355893 0.08118856 0.072142266 0.0520864 0.078446254 -0.07826241
00000000: 1d1f bf3d d6ab 3abc 444e 43bb 2b2d 8d3d
00000010: 4981 7d3d 4157 2dbd a08a f4bc 94cc 0e3d
00000020: d674 2fbd a152 a43d dd6c 4f3c b2a8 173d
00000030: c0bf 8f3d 8106 72bd ac79 c8bc 573f 623d
00000040: 107a 683d 27a4 743c b331 b7bc dc3c 963d
00000050: 3387 fdbc 9fab a5bc de08 a93c 1038 853d
00000060: ebdc 83bd e7b6 9bbb b83e 77bd 8ff7 693d
00000070: 86e1 f8bc ffd1 99bd 1295 32bc 093b 013d
00000080: cc51 f93c abab 8c3d b369 25bd 8d46 043d
00000090: b7da 1a3d df6c 54bd 9725 b5bc ed48 8cbd
000000a0: a4d2 a53b d87b 68bd 3e3d b13d 3075 753c
000000b0: 4e0d 72bc e2d6 383c 58cc beba f2d1 803d
000000c0: 640d 9c3d 4e2a c4bb 0f8d 3cbd c2e0 76bc
000000d0: b734 a4bd 36fa 933d 9555 68bc a210 06bd
000000e0: 04b2 a3bb dc4b 3e3c cade 803d 8df9 68bd
000000f0: 7938 253d 0f5e ff3b 4bb9 933d 306c 7abd
00000100: 57c6 8b3b 6249 5c3d b763 1d3c 254d e5bc
00000110: f484 2bbd cd96 4d3d 4d41 893d 6c10 9bbd
00000120: 279c abbc 4a65 34bd b780 9b3d 2ca1 61bd
00000130: c727 1c3d ffb9 42bd ed04 d8bc 7e0c 90bd
00000140: 74f5 95bd a3c5 9a3d 8f0d 0d3d 5bc3 843c
00000150: 4834 163d afac 4abc 1488 55bd 45bd b73c
00000160: 7f43 8dbc 924e 8b3d c7ee eb3c cef0 a83d
00000170: 259a 8a3d 2354 9e3d 168b 93bd 8ee8 923d
00000180: 25bb 833c 7976 623d 9c13 95bc 7302 a93d
00000190: b810 b83d a8c3 133c 63bc e53c 0885 edbc
000001a0: 2309 10bd b3f3 2cbd 9863 8b3d 5891 ca3d
000001b0: 09ec fd3c 79be a53b a15d 47bd 3dd6 903d
000001c0: 1d30 9a3c 7531 943c a0ad 983d f376 83bd
000001d0: cf52 a53d a7c7 b1bc f5ef 6fbd bedb 8b3d
000001e0: 3ce5 d2bb 87ab 9fbd 737c 84bd 11cd 703d
000001f0: fd91 e53b cbf5 0e3d c406 88bd d875 8f3d
00000200: a2ec 0bbc db3e 33bd 0cdd 92bd b10c 62bb
00000210: 8fa2 e5bc 4183 11bd 490e 313b b092 833d
00000220: fd19 893c 484c 923d caab 5e3d cbc8 383d
00000230: 6fdf 343d fb93 923d 790b 493c ddba 46bd
00000240: cc18 c3bb 10b7 23bd 033f 0b3c 846d 39bd
00000250: 38de d7bc c568 8a3c 5340 8c3d 6c39 c0bb
00000260: 43de 21bc 23fd 60bd aff8 38bd 63db 4d3c
00000270: bf84 a6bc 413d 88bd 7f8c 173d d097 833d
00000280: 52cb 7f3d a29b d4bb ccc8 9c3c fc16 863d
00000290: 48fd 443d 2df0 3a3d 433d 9d3d 58d3 bd3c
000002a0: 2b1b 6c3d 03e6 6bbd 47d3 33bd 6d5f abbd
000002b0: 5afd 143d 8fe8 adbd 99d1 563d 7ccc 1abd
000002c0: d89e 603c c3c8 06bd 1dff 033d 2f1c 223d
000002d0: 6d05 d2bc 8eb6 b23c 7c4c 563b e1d7 86bd
000002e0: 6104 fe3c b1a4 883b ecb8 92bd af79 82bd
000002f0: 5d73 36bc 23e9 80bd f222 78bd 3693 2d3d
00000300: fa20 28bd df1e 913d 4f02 30bd e223 983d
00000310: 3d3a 94bd a036 2fbd ae0d 97bd 25f3 a3bd
00000320: 8b7d 9bbd 922f 663c cb78 98bd 80b2 55bd
00000330: 6d74 aebc cfae b93c 3571 08bd 6aa0 13bd
00000340: 9ea8 b3bc 5cef 9bbd ac8f 9fbd fece fdbc
00000350: 213d eabc 39e4 e03c 821b 823d 6a6f 35bd
00000360: bf40 5cbd d4e5 343c b009 85bd eac1 81bd
00000370: 319c 69bd 9f74 953c 1cee 81bd 550e 43bd
00000380: f875 a6bd ebe6 bb3d eff1 9e3d bdc9 463d
00000390: 7259 c83b 6ffa 02bd a472 0bbd 5b01 463d
000003a0: 72ae 883d c610 7ebc 0206 6d3d b375 e73c
000003b0: 7a82 4c3d 494d 3a3d f235 8cbd e62c beba
000003c0: 1efe 09bd db0d 58bd 3436 81bd 8e1f 123d
000003d0: 98db b43c 7996 023c 37f9 9fba 6163 83bc
000003e0: d167 903d f862 8c3c 5150 7b3d 3046 a63d
000003f0: 53bf 933d 8d58 553d 6ea8 a03d 0b48 a0bd

cnn.5.bias f4 [32]
-0.006309051 -0.020660184 -0.0031260096 0.043466493 -0.003835118 0.0023285677 -0.014589209 -0.023591027
-0.005036635 -5.4526718e-05 0.0011724054 0.013553593 0.0005731375 -0.0031422693 0.034338348 0.00061116304
-0.024779392 -0.0014064674 -0.010243385 0.0059054615 -0.01575538 -0.037423458 0.008974127 -0.03841174
-0.01180815 0.013544532 -0.034914035 7.2595794e-05 0.029527238 0.0293476 0.011909076 0.0031346558
00000000: 28bc cebb 8c3f a9bc bddd 4cbb ec09 323d
00000010: 9a56 7bbb e29a 183b 9407 6fbc f841 c1bc
00000020: 5b0a a5bb 9eb3 64b8 66ab 993a e40f 5e3c
00000030: 9b3e 163a 88ee 4dbb 5ea6 0c3d 7536 203a
00000040: 27fe cabc 3759 b8ba dfd3 27bc 9a82 c13b
00000050: 6d11 81bc 5749 19bd 3708 133c a155 1dbd
00000060: f976 41bc e2e9 5d3c 0502 0fbd 923e 9838
00000070: 1be3 f13c 616a f03c 491e 433c cc6e 4d3b

cnn.6.weight f4 [32]
0.99125946 0.99259317 0.9956689 0.99940777 1.0013269 0.9933953 1.0184163 0.9990302
0.9937783 0.99471396 0.9982684 1.0103345 0.9944422 1.0012033 0.9997848 0.99576193
1.0061955 1.0090015 1.0011562 1.0014641 1.0051008 0.97847104 1.0159873 0.99680865
0.997855 0.98839617 0.9921052 1.0016849 1.0023246 0.99469966 0.99870974 0.99130774
00000000: 2ec3 7d3f 961a 7e3f 28e4 7e3f 30d9 7f3f
00000010: 7b2b 803f 284f 7e3f 775b 823f 71c0 7f3f
00000020: 4168 7e3f 93a5 7e3f 858e 7f3f a452 813f
00000030: c493 7e3f 6e27 803f e6f1 7f3f 41ea 7e3f
00000040: 04cb 803f f626 813f e325 803f fa2f 803f
00000050: 25a7 803f 147d 7a3f df0b 823f da2e 7f3f
00000060: 6d73 7f3f 8807 7d3f 9bfa 7d3f 3637 803f
00000070: 2c4c 803f a3a4 7e3f 71ab 7f3f 58c6 7d3f

cnn.6.bias f4 [32]
-0.005072971 0.0026122963 0.005346381 -0.01124777 -0.0034648776 -0.0034647484 -0.008706547 -0.010325369
-0.008810999 -0.003249664 -0.0036244984 -0.016698977 0.004354336 -0.008872972 -0.001982956 -0.0041019972
0.0049132355 -0.0012615012 -0.0008539592 -0.008777022 -0.012153195 -0.010229246 -0.0096430825 0.004221259
-0.005086388 0.0029652251 -0.00036251757 0.0014971435 -0.0029543112 0.0009446675 0.0016072401 -0.0037595953
00000000: 2a3b a6bb 0f33 2b3b b230 af3b 9148 38bc
00000010: 0013 63bb d510 63bb e8a5 0ebc bd2b 29bc
00000020: 025c 10bc 51f8 54bb fe88 6dbb 4bcc 88bc
00000030: d1ae 8e3b f15f 11bc 7bf4 01bb 0c6a 86bb
00000040: 35ff a03b f558 a5ba 3bdc 5fba 80cd 0fbc
00000050: 321e 47bc 9198 27bc 05fe 1dbc 7d52 8a3b
00000060: b7ab a6bb 3954 423b 4910 beb9 cd3b c43a
00000070: 1e9d 41bb 90a3 773a 07aa d23a 8b63 76bb

cnn.6.running_mean f4 [32]
0.6665881 -0.4548686 0.37766737 -0.3004955 0.3386019 0.59036237 0.9201701 0.45139092
0.03970859 0.011445843 0.1177728 -0.26845148 -0.55960286 0.45621774 0.27083725 0.2477037
-0.37955844 0.115138605 -0.26198542 0.52937883 0.40890625 -0.044547763 0.86096966 -0.3773172
-0.24654092 0.5161279 -0.027379863 0.21591207 0.17123373 -0.1512729 -0.34642363 -0.13242511
00000000: 85a5 2a3f 8ae4 e8be 9e5d c13e 8cda 99be
00000010: 3a5d ad3e fd21 173f 4590 6b3f b61c e73e
00000020: 79a5 223d 5887 3b3c de32 f13d 7972 89be
00000030: 2242 0fbf 5f95 e93e 2eab 8a3e 0aa6 7d3e
00000040: 7c55 c2be cacd eb3d f422 86be 5f85 073f
00000050: 295c d13e b777 36bd 8268 5c3f b82f c1be
00000060: 3975 7cbe f520 043f bc4b e0bc 0e18 5d3e
00000070: e557 2f3e 48e7 1abe 705e b1be 739a 07be

cnn.6.running_var f4 [32]
0.26509923 0.324343 0.37876981 0.3267212 0.33560774 0.5854982 0.3151904 0.20811364
0.25714728 0.2749609 0.28273204 0.19808322 0.4459126 0.17172334 0.15523905 0.19921511
0.2729855 0.13566492 0.34058657 0.20172593 0.23758832 0.13002685 0.3746403 0.32286856
0.28578326 0.37885165 0.38250116 0.4445789 0.554679 0.2739802 0.1925855 0.49356097
00000000: 16bb 873e 4910 a63e 1eee c13e 0048 a73e
00000010: c7d4 ab3e 36e3 153f a360 a13e be1b 553e
00000020: cfa8 833e adc7 8c3e 41c2 903e 54d6 4a3e
00000030: a84e e43e 3ed8 2f3e fcf6 1e3e 0cff 4b3e
00000040: c1c4 8b3e bfeb 0a3e 5d61 ae3e 3e91 4e3e
00000050: 5a4a 733e c225 053e dad0 bf3e 074f a53e
00000060: 2f52 923e d8f8 c13e 31d7 c33e d89f e33e
00000070: 71ff 0d3f 2247 8c3e 2235 453e 06b4 fc3e

cnn.9.weight f4 [64, 32, 3, 3]
0.029606128 -0.042717785 0.032315407 -0.034231063 -0.042880047 -0.060543418 -0.051358454 0.0031317994
-0.010678468 0.029562622 -0.003913731 -0.02699022 -0.04622298 0.03653409 0.0012656027 -0.050676484
-0.04613356 0.044332054 0.019497614 0.049843308 0.052724242 0.016447775 -0.008681458 -0.010930529
-0.041280046 0.04227556 -0.027022215 0.03120759 0.010561339 -0.05526923 0.0032014197 0.03169493
-0.0051182616 0.055066783 -0.060420405 -0.04570052 -0.023407768 0.04873778 -0.015691733 -0.023091516
0.049709145 -0.04609478 0.044325564 0.004419018 -0.06172136 -0.056538545 0.042591922 0.035393465
0.0016046525 0.031672426 -0.048031442 -0.05793618 -0.05062637 -0.009243566 0.028357292 0.015524052
0.019507289 0.02491302 0.03310319 0.012513835 0.044330478 -0.0014166019 0.031069143 0.047891553
0.009584394 -0.056386378 0.023251679 0.05274748 0.023258064 0.067808144 0.026765322 0.018153014
-0.0041515664 0.045808982 -0.027223002 -0.03152684 0.035114698 -0.05912174 0.014547149 0.042481005
0.03575463 -0.030151803 0.06233455 -0.026340263 -0.0048319395 0.03405333 -0.057211015 0.002028355
-0.010469957 -0.027405666 0.02085868 -0.032889344 0.028920114 -0.02264544 0.041804012 -0.043016374
0.033092264 -0.018120525 -0.047568616 0.022272382 -0.04437961 -0.0025373297 -0.03579128 -0.02536184
-0.02979765 0.038575076 -0.01618041 0.0042953724 0.052389856 0.06404716 -0.040855 0.03971949
0.017432112 -0.0047191237 0.009297564 0.00028546652 -0.018002164 -0.0006710764 -0.0067135133 -0.033967845
0.013616296 0.040793043 -0.050998483 0.0069302856 0.0029545205 0.011467899 -0.0024678125 -0.03856269
0.0034429396 -0.04336594 0.014643675 0.049510743 0.049770825 -0.030063473 -0.034226537 -0.03972395
-0.02031756 -0.023923846 0.021995641 0.047935557 -0.0285615 -0.033178527 -0.01189836 -0.03430133
0.0009424548 -0.023220368 0.043272793 0.04528983 -0.03993225 0.032492947 -0.034859724 -0.0057041813
0.045731515 -0.06069716 -0.030739462 -0.035581127 -0.023147453 -0.0034818216 -0.026005933 -0.020701336
-0.02348384 -0.021815572 -0.01928529 0.031889483 -0.0463822 -0.062891975 0.038767464 -0.042953227
-0.030985188 -0.023517601 0.046992492 0.042184062 0.01978037 0.024826787 -0.012570787 -0.0104984315
0.05057747 0.03106919 -0.035564754 -0.021695714 0.032557774 0.045573395 -0.03834028 -0.012055681
-0.0153775625 0.028013138 0.030328061 0.04251243 -0.044680167 0.0076602837 0.036770053 0.019520482
0.045360986 0.012722144 -0.04038721 0.00028678353 -0.035438452 -0.05294103 0.062139258 0.030065555
-0.034212295 0.047811054 0.027211124 0.024303734 0.058994703 -0.008177402 -0.036778558 0.043087438
-0.036804706 -0.029397057 -0.015884802 -0.042972613 1.2180824e-05 -0.0005076668 0.05301389 -0.009201147
-0.00852623 -0.03694313 -0.027815579 0.050740585 -0.0297985 -0.0013821607 -0.026743626 0.028190922
0.037047256 0.0031747264 0.021048617 -0.009725975 -0.018063402 -0.0150270825 -0.024510762 0.051794857
0.008820059 -0.053023417 0.03852089 -0.010273899 -0.0035898215 -0.039382 -0.05443922 0.050660882
0.023889322 0.053096145 0.0039251037 -0.035986364 -0.010952045 -0.019253435 -0.0531408 0.014374042
0.009477818 0.0150071625 -0.040289078 -0.046389323 0.050551075 -0.046722434 0.05153858 -0.011766406
00000000: 8d88 f23c d8f8 2ebd 295d 043d df35 0cbd
00000010: fda2 2fbd 60fc 77bd 3e5d 52bd e03e 4d3b
00000020: bef4 2ebc 502d f23c c13e 80bb 981a ddbc
00000030: 4f54 3dbd c5a4 153d 94e2 a53a 2592 4fbd
00000040: 8bf6 3cbd 8795 353d 76b9 9f3c 7f28 4c3d
00000050: 60f5 573d 7cbd 863c ad3c 0ebc f615 33bc
00000060: 4415 29bd 2329 2d3d b15d ddbc 0fa7 ff3c
00000070: 7709 2d3c fd61 62bd e9ce 513b 8bd2 013d
00000080: 17b7 a7bb b58d 613d 637b 77bd 7830 3bbd
00000090: a6c1 bfbc 44a1 473d f38b 80bc 6b2a bdbc
000000a0: d19b 4b3d e1cd 3cbd b98e 353d 69cd 903b
000000b0: 89cf 7cbd f694 67bd de74 2e3d bdf8 103d
000000c0: 3453 d23a f2ba 013d 9ebc 44bd 7d4e 6dbd
000000d0: 995d 4fbd 5372 17bc 8d4d e83c 9858 7e3c
000000e0: c0cd 9f3c 6416 cc3c 3697 073d d406 4d3c
000000f0: e093 353d 46ad b9ba b784 fe3c ef29 443d
00000100: dd07 1d3c 67f5 66bd 4e7a be3c be0d 583d
00000110: b287 be3c ffde 8a3d f342 db3c a1b5 943c
00000120: dd09 88bb 33a2 3b3d c602 dfbc 4a22 01bd
00000130: 6ed4 0f3d a329 72bd 2a57 6e3c 9000 2e3d
00000140: 7273 123d ea00 f7bc 8352 7f3d 89c7 d7bc
00000150: 3f55 9ebb 817b 0b3d 1956 6abd 26ee 043b
00000160: 2f8a 2bbc d981 e0bc d3df aa3c fab6 06bd
00000170: e0e9 ec3c ee82 b9bc af3a 2b3d f031 30bd
00000180: c18b 073d 7f71 94bc 4fd7 42bd 9274 b63c
00000190: 65c7 35bd 5449 26bb e199 12bd a2c3 cfbc
000001a0: 341a f4bc e600 1e3d c78c 84bc 32c0 8c3b
000001b0: bf96 563d 282b 833d 9357 27bd e7b0 223d
000001c0: cacd 8e3c e1a2 9abb cf54 183c abaa 9539
000001d0: 4679 93bc 2deb 2fba 08fd dbbb de21 0bbd
000001e0: e316 5f3c 9b16 273d c9e3 50bd 7317 e33b
000001f0: a1a0 413b dbe3 3b3c 06bb 21bb e9f3 1dbd
00000200: f1a2 613b 7ca0 31bd 06ec 6f3c c7cb 4a3d
00000210: 7edc 4b3d ac47 f6bc 2031 0cbd 95b5 22bd
00000220: 0371 a6bc f1fb c3bc 3430 b43c 1358 443d
00000230: cff9 e9bc 35e6 07bd 57f1 42bc 8d7f 0cbd
00000240: 120f 773a a438 bebc d03e 313d d481 393d
00000250: 0090 23bd 5317 053d 12c9 0ebd 24ea babb
00000260: f850 3b3d 969d 78bd 53d1 fbbc 84bd 11bd
00000270: ba9f bdbc 462f 64bb 650a d5bc d995 a9bc
00000280: 2f61 c0bc 92b6 b2bc 2ffc 9dbc 8c9e 023d
00000290: 43fb 3dbd 82cd 80bd a2ca 1e3d b9ef 2fbd
000002a0: a6d4 fdbc fca7 c0bc 337b 403d 32c9 2c3d
000002b0: 710a a23c 8c61 cb3c b4f5 4dbc 9d01 2cbc
000002c0: 522a 4f3d d084 fe3c 59ac 11bd 36bb b1bc
000002d0: 4d5b 053d 2bab 3a3d b30a 1dbd 3185 45bc
000002e0: 2cf2 7bbc cf7b e53c 8e72 f83c 8421 2e3d
000002f0: 8d02 37bd 1e03 fb3b 329c 163d 6be9 9f3c
00000300: 71cc 393d 8a70 503c 0f6d 25bd 6f5b 9639
00000310: e927 11bd b2d8 58bd bc85 7e3d 0a4c f63c
00000320: 3122 0cbd 86d5 433d dde9 de3c a018 c73c
00000330: 6ea4 713d 83fa 05bc 1da5 16bd 747c 303d
00000340: 88c0 16bd 19d2 f0bc d820 82bc 0d04 30bd
00000350: 3e5c 4c37 f114 05ba 1825 593d 68c0 16bc
00000360: 9ab1 0bbc ae51 17bd 7fdd e3bc 5cd5 4f3d
00000370: fc1b f4bc 9e29 b5ba 7315 dbbc a6f0 e63c
00000380: ddbe 173d 120f 503b 266e ac3c b259 1fbc
00000390: b3f9 93bc 2734 76bc cbca c8bc d826 543d
000003a0: 0282 103c 152f 59bd 15c8 1d3d db53 28bc
000003b0: 3643 6bbb 054f 21bd a9fb 5ebd c981 4f3d
000003c0: 8ab3 c33c 587b 593d 289e 803b 7066 13bd
000003d0: 3570 33bc 61b9 9dbc 2baa 59bd 1a81 6b3c
000003e0: da48 1b3c 9ae0 753c 2906 25bd bb02 3ebd
000003f0: a50e 4f3d 0660 3fbd 1e1a 533d e2c7 40bc

cnn.9.bias f4 [64]
0.0070372554 -0.011161746 0.014548448 -4.0988543e-06 4.374239e-05 0.0077307 -0.012239789 -1.2748559e-05
-2.7459362e-06 -0.0046750484 -0.0058401087 -8.88555e-05 0.012418184 -3.934188e-05 -3.3502114e-05 5.6382946e-06
-0.0022819468 0.0009980996 -0.0014534758 -0.005882366 -0.0006924815 6.435278e-05 0.0065998556 0.0001616496
-0.0001307045 -2.4752811e-05 -0.017068902 0.0021479256 0.016986469 -0.0027536224 -0.0024826939 1.8204732e-05
0.0032775474 4.061542e-05 -0.00018035508 0.00025397385 -0.013904711 -0.0025347057 -3.3496144e-05 -7.138089e-05
-0.012459915 -0.0071081524 0.00015383151 -9.470328e-06 -0.012514558 -2.2208738e-05 0.00021645142 0.012470204
-5.92631e-06 -0.00091778813 1.307092e-05 0.003053654 -0.0114140175 8.789599e-05 -0.011461615 -0.0010390541
0.0020562895 1.50012e-06 -0.0013688158 -5.901378e-07 -3.297798e-05 0.00013766893 0.0017721 0.0061036623
00000000: c798 e63b c2df 36bc 9d5c 6e3c e488 89b6
00000010: 0978 3738 d051 fd3b 6589 48bc a5e2 55b7
00000020: d346 38b6 2631 99bb 625e bfbb ef57 bab8
00000030: a475 4b3c 0603 25b8 9f84 0cb8 9530 bd36
00000040: b78c 15bb aad2 823a 8e82 beba ddc0 c0bb
00000050: a687 35ba 23f5 8638 9a43 d83b 7c80 2939
00000060: b90d 09b9 42a4 cfb7 15d4 8bbc 36c4 0c3b
00000070: 3527 8b3c 1e76 34bb b1b4 22bb 5db6 9837
00000080: 1fcc 563b 7a5a 2a38 b31d 3db9 cb27 8539
00000090: 96d0 63bc 4e1d 26bb 367e 0cb8 53b2 95b8
000000a0: ac24 4cbc 81eb e8bb d54d 2139 c0e2 1eb7
000000b0: dc09 4dbc e74c bab7 3cf7 6239 d44f 4c3c
000000c0: 9eda c6b6 b897 70ba 2d4b 5b37 d01f 483b
000000d0: dc01 3bbc cd54 b838 7fc9 3bbc df30 88ba
000000e0: d0c2 063b bb57 c935 d669 b3ba f669 1eb5
000000f0: d651 0ab8 395b 1039 cf45 e83a 3b01 c83b

cnn.10.weight f4 [64]
1.010765 1.0043281 0.9907028 1.0034558 0.9951945 0.9938977 0.99075425 1.0034854
0.9934571 1.0072381 0.99170715 0.9982803 1.0012808 0.9884957 0.9932035 0.9872619
0.9885055 0.99474853 1.000072 0.99723095 1.0005512 1.0046384 1.0073315 0.99582493
1.0156895 0.9952887 0.9942512 1.004898 0.99195534 0.99837875 0.99345326 1.0044651
1.0036608 1.000706 0.99835527 0.99230385 1.0013958 1.014157 1.0007237 0.99591315
1.00922 0.9911132 0.9916235 1.0016438 1.005635 0.9954533 1.0002115 0.997895
0.9923497 1.0070077 0.98234165 0.99015313 1.0058004 0.9954281 1.0112121 0.9975864
0.9915855 1.0022792 0.9972967 0.99440956 1.0049205 1.0014355 0.99836606 0.98868316
00000000: bf60 813f d38d 803f b39e 7d3f 3d71 803f
00000010: 11c5 7e3f 1470 7e3f 12a2 7d3f 3672 803f
00000020: 3453 7e3f 2eed 803f 85e0 7d3f 4c8f 7f3f
00000030: f829 803f 0e0e 7d3f 9642 7e3f 32bd 7c3f
00000040: b20e 7d3f d7a7 7e3f 5c02 803f 874a 7f3f
00000050: 1012 803f fe97 803f 3df0 803f 62ee 7e3f
00000060: 1d02 823f 3ecb 7e3f 3f87 7e3f 7fa0 803f
00000070: c9f0 7d3f c095 7f3f f452 7e3f 5092 803f
00000080: f577 803f 2217 803f 3694 7f3f a007 7e3f
00000090: bd2d 803f e6cf 813f b717 803f 2af4 7e3f
000000a0: 1f2e 813f 98b9 7d3f 0adb 7d3f dd35 803f
000000b0: a6b8 803f 07d6 7e3f ee06 803f 0c76 7f3f
000000c0: a10a 7e3f a1e5 803f be7a 7b3f ad7a 7d3f
000000d0: 11be 803f 60d4 7e3f 666f 813f d361 7f3f
000000e0: 8cd8 7d3f af4a 803f d64e 7f3f a091 7e3f
000000f0: 3ca1 803f 0a2f 803f eb94 7f3f 571a 7d3f

cnn.10.bias f4 [64]
-0.00017817318 -0.008088998 -0.008646476 0.0014701684 -0.0140017755 -0.0054414514 -0.013605727 0.0050149295
-0.0032246774 0.0046310863 -0.0066432194 0.009149137 0.0003948087 -0.0011148077 0.0045901807 -0.00042598462
0.0012440358 -0.00763249 -0.009488636 -0.00046677922 -0.014311866 0.0016668288 0.00225045 -0.0040589743
-0.0133035835 -0.013851963 -0.007934791 -0.012538271 -0.00868758 0.0047743195 -0.0010355253 -7.7587894e-05
-0.008981376 0.0029656012 0.0030658632 0.010226798 -0.0073313545 -0.00042466013 -0.009067057 -0.0117885005
-0.016647497 0.00530968 -0.00084997655 -0.0070832856 -0.0006915624 -0.0026981956 -0.00015349808 0.00049628195
0.003108554 -0.004375136 -0.00051916385 -0.0029230614 -0.0016077398 0.012453333 -0.004647638 -0.005281586
0.0018039506 -0.0044542593 0.008665845 0.0007740671 0.0032709385 -0.012772098 -0.0038449178 -0.0034936126
00000000: 00d4 3ab9 b787 04bc f3a9 0dbc aab2 c03a
00000010: b467 65bc 344e b2bb 8eea 5ebc 4754 a43b
00000020: 1c55 53bb 5ec0 973b 5daf d9bb 43e6 153c
00000030: 54fe ce39 bd1e 92ba 3a69 963b b056 dfb9
00000040: ea0e a33a f719 fabb 3976 1bbc 0cba f4b9
00000050: 517c 6abc 7e79 da3a 497c 133b 2501 85bb
00000060: 46f7 59bc 58f3 62bc ed00 02bc 526d 4dbc
00000070: 5a56 0ebc e571 9c3b 77ba 87ba afb6 a2b8
00000080: 9f26 13bc 885a 423b a6ec 483b 4d8e 273c
00000090: dc3b f0bb eba4 deb9 fe8d 14bc 8e24 41bc
000000a0: 5560 88bc d3fc ad3b f6d0 5eba e81a e8bb
000000b0: f849 35ba 36d4 30bb 54f4 20b9 eb18 023a
000000c0: e2b8 4b3b 4d5d 8fbb 7f18 08ba d590 3fbb
000000d0: ccba d2ba 1009 4c3c 374b 98bb 2811 adbb
000000e0: 8a72 ec3a 09f5 91bb 30fb 0d3c c4ea 4a3a
000000f0: 3e5d 563b 1042 51bc 04fb 7bbb 18f5 64bb

cnn.10.running_mean f4 [64]
-0.1589522 0.16788232 -0.9636964 -0.05284375 -0.20366353 0.5527361 0.17517981 -0.17975518
-1.2076983 -0.4535931 0.03933312 -0.07762544 0.12008436 -0.31313583 -0.41287768 0.73900944
0.66109145 0.2945656 1.0459518 -0.058021788 0.0072435043 -0.43149272 -0.16852999 -0.14948523
0.584966 -0.49928993 0.3711588 0.4791663 1.0393094 0.4403565 -0.58847153 0.4895131
0.85631126 -0.27780363 0.62696284 -0.41998953 0.1381364 0.4907603 -0.011361789 0.21434295
0.89654636 0.6401037 0.009197822 0.68684244 -0.3991298 0.80756325 -0.58714765 0.45862538
-0.62688375 -0.4620982 0.40091562 0.8657876 0.5182293 -0.64240384 0.31314152 -0.17655152
-0.67384034 0.5808394 -0.26076612 0.69288987 -0.7762245 0.6326818 0.4330599 0.44917762
00000000: 5ec4 22be 58e9 2b3e cfb4 76bf b072 58bd
00000010: 2c8d 50be 1d80 0d3f 5662 333e be11 38be
00000020: dc95 9abf 5b3d e8be c41b 213d 16fa 9ebd
00000030: caee f53d 5753 a0be b464 d3be b92f 3d3f
00000040: 4a3d 293f 4dd1 963e c0e1 853f 41a8 6dbd
00000050: eb5a ed3b 9dec dcbe 2093 2cbe a812 19be
00000060: 55c0 153f eea2 ffbe 8708 be3e 4955 f53e
00000070: 1708 853f 6876 e13e 12a6 16bf 76a1 fa3e
00000080: 3737 5b3f 473c 8ebe a380 203f de08 d7be
00000090: a173 0d3e ef44 fb3e cc26 3abc b87c 5b3e
000000a0: 1084 653f d6dd 233f 76b2 163c e8d4 2f3f
000000b0: be5a ccbe 77bc 4e3f 4f4f 16bf f2d0 ea3e
000000c0: 747b 20bf 2398 ecbe d044 cd3e 42a4 5d3f
000000d0: adaa 043f 9474 24bf 1654 a03e ecc9 34be
000000e0: cd80 2cbf e4b1 143f 2383 85be 3b61 313f
000000f0: a6b6 46bf 6ff7 213f 07ba dd3e 9cfa e53e

cnn.10.running_var f4 [64]
0.27998206 0.15971778 0.49859402 0.4303256 0.3097229 0.19175534 0.17182085 0.28494003
0.58136046 0.25770643 0.20219949 0.1825197 0.3410893 0.23514594 0.2878869 0.21898869
0.60063493 0.23625821 0.7573759 0.2485797 0.23980029 0.35961834 0.2577973 0.7136354
0.1626073 0.20656364 0.69336843 0.18274833 0.5735378 0.32153505 0.42425847 0.44115874
0.5465584 0.2883273 0.1836589 0.16104873 0.21176942 0.32447636 0.152018 0.2346666
0.37710634 0.18721265 0.45913726 0.34336412 0.4091718 0.40357414 0.60489947 0.43789244
0.21507917 0.36288434 0.41083157 0.45263386 0.40686923 0.28066242 0.1674781 0.22704765
0.21529132 0.320593 0.24772671 0.40497643 0.5222424 0.28637984 0.82163054 0.40947595
00000000: cf59 8f3e 0f8d 233e b747 ff3e a353 dc3e
00000010: 0094 9e3e 835b 443e cef1 2f3e a9e3 913e
00000020: 0ad4 143f 19f2 833e 620d 4f3e 72e6 3a3e
00000030: 42a3 ae3e 19ca 703e e965 933e 923e 603e
00000040: 36c3 193f aced 713e 63e3 413f ad8b 7e3e
00000050: 358e 753e e51f b83e 02fe 833e cfb0 363f
00000060: 8782 263e 6b85 533e 9880 313f 6122 3b3e
00000070: 60d3 123f 3ea0 a43e 6838 d93e 8fdf e13e
00000080: 40eb 0b3f a39f 933e 1411 3c3e f5e9 243e
00000090: 15da 583e c421 a63e 9baa 1b3e 714c 703e
000000a0: 1514 c13e acb4 3f3e 0a14 eb3e 6ccd af3e
000000b0: f77e d13e 45a1 ce3e b1da 1a3f 7033 e03e
000000c0: b73d 5c3e facb b93e 8458 d23e a0bf e73e
000000d0: 2a51 d03e fcb2 8f3e 617f 2b3e 2e7f 683e
000000e0: 5475 5c3e c424 a43e 12ac 7d3e 1259 cf3e
000000f0: aeb1 053f 61a0 923e 6156 523f d5a6 d13e

cnn.13.weight f4 [128, 64, 3, 3]
-0.030256296 0.012562665 0.0142074535 -0.0024750335 -0.0063911173 0.002905977 0.013361168 -0.020128049
-0.013217611 0.007121874 0.018274989 0.03823369 0.027616912 6.0454033e-05 0.0397299 0.0027596725
-0.03807577 0.023022102 -0.021081083 0.0066005965 0.034033943 -0.034566056 -0.0026537892 -0.016625443
-0.03796471 0.018197779 0.004442153 -0.0059017874 0.005183169 0.0043483293 -0.043997258 0.01305886
0.04031955 -0.043789867 -0.016403735 -0.0103032505 0.012000685 -0.0060351393 -0.00019887928 -0.024355046
0.02641471 -0.009326927 -0.0004996394 -0.04857627 -0.011922587 -0.016301284 -0.0015888857 -0.03577649
0.0048925215 -0.017173251 0.010107624 -0.035227165 -0.003163126 -0.017169546 0.013787119 0.02238188
0.023213124 0.015234603 0.043536335 -0.014342861 0.010632168 -0.008215229 -0.016240656 -0.010159435
-0.016816422 -0.025733719 0.0007602276 -0.038945857 -0.0119067915 -0.040867705 0.015743904 -0.020523505
-0.022023948 0.015019514 -0.011379698 -0.0077944654 0.022439707 0.008942548 0.0065725856 0.0044432576
0.011423873 0.021817503 -0.0034313714 0.04038385 -0.0038022886 0.033583827 -0.035176646 -0.037885487
0.02935671 0.018614318 -0.020607589 -0.024672328 -0.008238504 0.012156911 0.02656668 0.0062293713
0.007106629 0.010808251 -0.018803738 0.030530117 -0.009804679 0.001292225 -0.029524144 0.02215822
0.012443051 0.032797586 -0.018179648 -0.014081847 0.019427907 0.02433487 -0.011744771 0.028875683
-0.02553805 0.018960012 0.025856249 0.0253055 -0.020949313 -0.0033128608 -0.02609174 0.0018782566
0.009575606 -0.024889939 0.021700028 0.008591707 -0.020570464 0.026490875 -0.009719096 -0.03221409
-0.01792291 -0.013677165 0.0050661336 -0.01060957 0.011021348 0.029376294 0.014109667 0.0067423997
0.024888482 0.0027046197 0.0070635835 -0.023433967 0.012019807 0.0035956067 -0.03580108 -0.031854995
-0.009764071 -0.02796243 -0.0043868967 -0.02268215 0.035385586 -0.02295281 -0.027096877 0.00085807627
-0.013600499 -0.0045962534 -0.017652944 -0.021563295 0.01936587 -0.03392123 -0.0055556092 0.00016961376
-0.0045618615 -0.02053803 0.030855456 0.018838987 -0.022097398 0.035303157 -0.041828018 0.033205166
0.043819334 0.0051614577 0.016811838 -0.02226599 -0.00921174 0.010801251 -0.041175675 -0.026447138
-0.02837073 -0.015301242 0.014144505 0.034956872 -0.04169451 0.011573329 0.009869573 0.007408024
-0.00545188 -0.035837326 -0.003092409 -0.02272902 0.03139066 -0.043933988 0.012726867 -0.0020419166
-0.0024321799 -0.044850864 0.014928795 -0.020678166 -0.020780519 -0.004682289 -0.014867788 -0.009751769
-0.014635275 -0.0013500766 0.0034453436 -0.019601878 -0.029423641 0.018312827 0.0131769255 -0.01975179
0.04015693 0.021607537 0.031215053 -0.004230427 0.0046226443 0.0021332137 0.008447881 0.031080242
0.05665458 0.016514808 -0.0072120926 0.001837324 -0.010890714 -0.018711437 0.03490984 0.011702303
0.003153111 -0.021441555 -0.019926304 0.035990555 0.017968267 0.013407092 -0.020305624 -0.050962552
-0.006261927 -0.0013286216 -0.029825741 -0.0047212983 0.026591921 0.0086459 -0.021522932 0.012237013
-0.033677153 0.0003895235 0.038763642 -0.018202024 0.019100923 -0.0022689889 -0.0066063725 0.036488365
0.011993375 0.022214616 0.030147765 0.035256356 0.0019345856 0.00578826 -0.0084884465 -0.0154221235
00000000: 0ddc f7bc a3d3 4d3c 61c6 683c 2c34 22bb
00000010: 946c d1bb 3472 3e3b cde8 5a3c 94e3 a4bc
00000020: ae8e 58bc 9c5e e93b 6eb5 953c ee9a 1c3d
00000030: dd3c e23c 0690 7d38 d2bb 223d 9fdb 343b
00000040: 57f5 1bbd d998 bc3c 3cb2 acbc d149 d83b
00000050: 2d67 0b3d 2395 0dbd 32eb 2dbb 1532 88bc
00000060: e280 1bbd 8213 953c 7b8f 913b c863 c1bb
00000070: 93d7 a93b 6e7c 8e3b 7836 34bd d4f4 553c
00000080: 1d26 253d 015d 33bd 2061 86bc f7ce 28bc
00000090: 859e 443c 6bc2 c5bb 408a 50b9 3c84 c7bc
000000a0: a963 d83c f8cf 18bc 3cfa 02ba e9f7 46bd
000000b0: f456 43bc 458a 85bc 2842 d0ba 5e8a 12bd
000000c0: 7251 a03b ebae 8cbc 739a 253c 5c4a 10bd
000000d0: 734c 4fbb 26a7 8cbc 5ee3 613c 345a b73c
000000e0: 7329 be3c 8e9a 793c 2853 323d 52fe 6abc
000000f0: 8b32 2e3c 2b99 06bc 200b 85bc c273 26bc
00000100: 98c2 89bc 85cf d2bc 034a 473a b185 1fbd
00000110: b414 43bc e564 27bd 5cf9 803c e920 a8bc
00000120: 916b b4bc 6814 763c ea71 3abc b768 ffbb
00000130: 7ad3 b73c c483 123c d85e d73b bf98 913b
00000140: 322b 3b3c 9fba b23c dce0 60bb 8969 253d
00000150: d12f 79bb 328f 093d 6315 10bd d02d 1bbd
00000160: 7c7d f03c 0e7d 983c 3fd1 a8bc 9f1d cabc
00000170: cafa 06bc c82d 473c 5ea2 d93c c11f cc3b
00000180: bade e83b 1715 313c 4c0a 9abc 4c1a fa3c
00000190: cea3 20bc e05f a93a 9edc f1bc 2885 b53c
000001a0: f0dd 4b3c c356 063d 7ced 94bc 8cb7 66bc
000001b0: 4627 9f3c ec59 c73c 246d 40bc b28c ec3c
000001c0: 2c35 d1bc 0752 9b3c 7cd0 d33c 7b4d cf3c
000001d0: e59d abbc 951c 59bb 58be d5bc d52f f63a
000001e0: 01e3 1c3c fce5 cbbc 42c4 b13c 3bc4 0c3c
000001f0: 6483 a8bc 6403 d93c d83c 1fbc ecf2 03bd
00000200: 11d3 92bc 3016 60bc cf01 a63b c3d3 2dbc
00000210: e292 343c 8ea6 f03c 3c2c 673c 59ef dc3b
00000220: eee2 cb3c fd3f 313b a275 e73b 97f8 bfbc
00000230: b9ee 443c 45a4 6b3b 27a4 12bd 627a 02bd
00000240: 7bf9 1fbc 7711 e5bc f5bf 8fbb ebcf b9bc
00000250: 7af0 103d 8807 bcbc 45fa ddbc 86f0 603a
00000260: a1d4 5ebc 2b9c 96bb e89c 90bc 82a5 b0bc
00000270: 2ca5 9e3c fdf0 0abd d40b b6bb 59da 3139
00000280: ab7b 95bb 5f3f a8bc 95c4 fc3c 3854 9a3c
00000290: 9a05 b5bc 0b9a 103d db53 2bbd 2402 083d
000002a0: e77b 333d 7221 a93b fbb8 893c 2a67 b6bc
000002b0: d7ec 16bc bbf7 303c d3a7 28bd aba7 d8bc
000002c0: bc69 e8bc 0fb2 7abc 5bbe 673c f02e 0f3d
000002d0: ddc7 2abd 0f9e 3d3c fdb3 213c 02bf f23b
000002e0: afa5 b2bb 29ca 12bd 04aa 4abb 3632 babc
000002f0: 7e93 003d 20f4 33bd 5984 503c add1 05bb
00000300: 3565 1fbb 8ab5 37bd e897 743c 4265 a9bc
00000310: e83b aabc e36d 99bb 0698 73bc e2c5 1fbc
00000320: cbc8 6fbc 0ef5 b0ba 46cb 613b 1e94 a0bc
00000330: d909 f1bc c804 963c 08e4 573c 82ce a1bc
00000340: 987b 243d 4a02 b13c b6b6 ff3c 659f 8abb
00000350: 8d79 973b 63cd 0b3b fb68 0a3c fe9b fe3c
00000360: a20e 683d 104a 873c 6b53 ecbb 5dd2 f03a
00000370: f76e 32bc ba48 99bc 9ffd 0e3d 04bb 3f3c
00000380: 6da4 4e3b 33a6 afbc 7d3c a3bc d56a 133d
00000390: 3032 933c 6ba9 5b3c fb57 a6bc 1cbe 50bd
000003a0: da30 cdbb 2525 aeba 1d55 f4bc 1fb5 9abb
000003b0: 4dd7 d93c 88a7 0d3c dc50 b0bc c17d 483c
000003c0: 0ef1 09bd f638 cc39 a0c6 1e3d 691c 95bc
000003d0: 8a79 9c3c 51b3 14bb 457a d8bb d374 153d
000003e0: dc7f 443c 6dfb b53c 72f8 f63c f868 103d
000003f0: ec91 fd3a 72ab bd3b 2013 0bbc 13ad 7cbc

cnn.13.bias f4 [128]
7.9429716e-05 -0.00023113555 -0.0039334865 -9.576934e-06 0.00060953223 -4.4531034e-06 0.0051992186 -6.231734e-06
6.8273926e-06 -3.1456048e-06 -0.00012521482 0.004772965 0.0038081645 -0.0012909619 2.1772678e-06 0.0042767655
-0.00047835888 -0.002219619 -0.0026213708 -5.7464085e-06 -1.4594528e-06 -1.8905935e-06 7.4960603e-06 -3.2935877e-06
5.1843317e-06 -2.5523932e-06 0.005321228 -0.00039738414 0.0034858652 -5.577597e-06 0.00072617794 -5.4377523e-07
2.1127513e-05 -6.457318e-06 0.00026285666 -3.4171667e-06 0.0046829646 0.0006242744 -5.9892177e-06 -1.0787765e-05
-3.276552e-06 -0.000120472054 -0.0010034953 -0.0052847513 -8.7807194e-07 3.984884e-06 0.00045121805 0.0005949702
1.4169661e-05 -0.0032855857 9.747052e-07 2.0878938e-06 1.4109577e-05 8.7657327e-07 0.0011997969 3.1870422e-05
6.1041264e-06 -7.967289e-06 0.00093258766 -1.6958582e-05 1.4284301e-06 3.985501e-06 -0.0007785415 -3.4640807e-06
0.0005413174 -8.567591e-07 -1.7970538e-07 -3.853626e-06 1.5263153e-05 1.9104164e-05 0.0020507502 0.00059824775
-2.426769e-06 -0.0004485524 -0.00075863244 -0.0029519114 -4.12143e-06 -2.9947489e-05 1.1780645e-05 -0.0032187265
1.7051327e-05 -3.5343985e-06 -1.0394942e-06 -0.00030584045 -3.3085915e-05 4.687647e-06 0.00014064157 -1.1397504e-05
-0.00082880165 -0.00024009013 -4.459601e-05 -2.8511622e-06 -0.0041648378 -5.967355e-07 7.495204e-07 5.722116e-05
-2.0931502e-06 8.574278e-06 -0.0029103616 5.1010934e-06 -6.1147653e-06 -5.876936e-07 6.520518e-06 -0.00014766186
1.2519131e-06 -2.4612834e-06 -0.0015127339 0.0008786419 -0.0049136383 1.0356681e-05 6.0384896e-06 0.00013409682
2.205054e-06 -1.5579421e-06 -0.0011229279 -3.7961222e-06 -0.00058824243 0.001429694 -1.4741231e-06 -0.0045269034
0.00013363763 -0.0053446474 -1.4622391e-05 -0.00092820835 -5.1762327e-06 0.0014002546 -0.00093429605 -0.0030765445
00000000: 8193 a638 fa5c 72b9 7ae4 80bb 9eac 20b7
00000010: 04c9 1f3a de6b 95b6 355e aa3b 301a d1b6
00000020: db16 e536 1419 53b6 194c 03b9 8866 9c3b
00000030: 6692 793b 7e35 a9ba 2d1d 1236 1c24 8c3b
00000040: 3ecc fab9 0777 11bb 4ecb 2bbb 46d1 c0b6
00000050: 6be2 c3b5 4cc0 fdb5 ab86 fb36 6807 5db6
00000060: 12f5 ad36 c849 2bb6 b25d ae3b ff57 d0b9
00000070: 1d73 643b 3227 bbb6 fa5c 3e3a f3f7 11b5
00000080: fd3a b137 f0ab d8b6 06d0 8939 7a52 65b6
00000090: 8e73 993b 59a6 233a fdf6 c8b6 19fd 34b7
000000a0: bce2 5bb6 f1a5 fcb8 b787 83ba b52b adbb
000000b0: a5b4 6bb5 e5b5 8536 7691 ec39 c6f7 1b3a
000000c0: 3bba 6d37 fb52 57bb 9ed2 8235 be1d 0c36
000000d0: 2cb8 6c37 a84d 6b35 8142 9d3a 9bac 0538
000000e0: 0cd2 cc36 3fab 05b7 e678 743a 4742 8eb7
000000f0: 7cb8 bf35 31bb 8536 0917 4cba 7478 68b6
00000100: 32e7 0d3a 09fc 65b5 0af5 40b4 654e 81b6
00000110: 5f09 8037 e141 a037 e165 063b bad3 1c3a
00000120: 93db 22b6 af2b ebb9 f6de 46ba db74 41bb
00000130: d04a 8ab6 be37 fbb7 7ca5 4537 45f1 52bb
00000140: 7209 8f37 8130 6db6 c084 8bb5 3659 a0b9
00000150: bbc5 0ab8 954a 9d36 2f79 1339 e837 3fb7
00000160: f043 59ba b4c0 7bb9 9a0c 3bb8 9856 3fb6
00000170: 3179 88bb 5a2f 20b5 a632 4935 c100 7038
00000180: 0c78 0cb6 3eda 0f37 c4bb 3ebb 0f2a ab36
00000190: 6f2d cdb6 ffc1 1db5 d3ca da36 aed5 1ab9
000001a0: 6807 a835 872c 25b6 ed46 c6ba a954 663a
000001b0: 9602 a1bb 9bc1 2d37 3b9e ca36 579c 0c39
000001c0: 8afa 1336 7c1a d1b5 352f 93ba e2c0 7eb6
000001d0: 4834 1aba 9264 bb3a 7cda c5b5 6b56 94bb
000001e0: 1421 0c39 2722 afbb b152 75b7 0253 73ba
000001f0: 80af adb6 bf88 b73a 8ceb 74ba da9f 49bb

cnn.14.weight f4 [128]
1.0280143 1.0209008 1.0099556 1.0178579 1.031526 1.0248418 1.0238315 1.0248902
1.0263101 1.027183 1.0219705 1.0256147 1.0160836 1.0286677 1.0276759 1.0232232
1.0236452 1.0224273 1.0254009 1.0278978 1.0258291 1.023159 1.0275598 1.0294265
1.0162301 1.02275 1.0253489 1.02138 1.0219575 1.0237367 1.0231891 1.0277567
1.0246551 1.0298327 1.0395846 1.0175936 1.0229844 1.0302675 1.0266722 1.0337464
1.0344841 1.0253555 1.0209571 1.0147495 1.0207134 1.0254028 1.0160784 1.022866
1.0216016 1.0248678 1.0121582 1.0270542 1.0263592 1.027933 1.0331622 1.0211385
1.0318549 1.0248643 1.0233034 1.0252144 1.0215441 1.0237423 1.0180022 1.0180994
1.0193568 1.0286143 1.0276867 1.0251456 1.0215324 1.0247098 1.0258683 1.0313418
1.0152647 1.027096 1.0247313 1.0170325 1.0215249 1.0292587 1.0234499 1.0198493
1.0172163 1.0306269 1.0147389 1.0271645 1.0293674 1.0207669 1.0295618 1.0329533
1.0226731 1.0244572 1.0294957 1.0185782 1.0219146 1.0222791 1.015199 1.0250458
1.0316659 1.0184071 1.0283519 1.024559 1.0191091 1.0221907 1.0281613 1.0313334
1.0271012 1.0225333 1.0267041 1.0248712 1.0204387 1.0234125 1.0219235 1.0202099
1.0269283 1.0315119 1.0284069 1.0122871 1.022116 1.0273354 1.03144 1.0246345
1.0321635 1.0258033 1.0249765 1.0200711 1.0250759 1.0247377 1.0270004 1.0269527
00000000: f995 833f e1ac 823f 3a46 813f 2b49 823f
00000010: 0b09 843f 042e 833f e90c 833f 9a2f 833f
00000020: 215e 833f bc7a 833f eecf 823f 5847 833f
00000030: 070f 823f 62ab 833f e28a 833f faf8 823f
00000040: ce06 833f e6de 823f 5640 833f 2892 833f
00000050: 5e4e 833f e0f6 823f 1487 833f 3fc4 833f
00000060: d413 823f 79e9 823f a23e 833f 94bc 823f
00000070: 81cf 823f ce09 833f dcf7 823f 888d 833f
00000080: e627 833f 8fd1 833f 1c11 853f 8240 823f
00000090: 27f1 823f cedf 833f ff69 833f cd51 843f
000000a0: fa69 843f d93e 833f b9ae 823f 50e3 813f
000000b0: bda6 823f 6640 833f db0e 823f 46ed 823f
000000c0: d7c3 823f de2e 833f 668e 813f 8376 833f
000000d0: bd5f 833f 4f93 833f a93e 843f abb4 823f
000000e0: d213 843f c12e 833f 9bfb 823f 3a3a 833f
000000f0: f5c1 823f fd09 833f e54d 823f 1551 823f
00000100: 497a 823f a2a9 833f 3d8b 833f f937 833f
00000110: 93c1 823f b129 833f a74f 833f 0203 843f
00000120: 32f4 813f e277 833f 652a 833f 1f2e 823f
00000130: 54c1 823f c0be 833f 6800 833f 6c8a 823f
00000140: 2534 823f 95eb 833f f7e2 813f 207a 833f
00000150: 50c2 833f 7da8 823f aec8 833f d037 843f
00000160: f4e6 823f 6a21 833f 84c6 833f c560 823f
00000170: 19ce 823f 0bda 823f 0af2 813f b334 833f
00000180: a10d 843f 2a5b 823f 09a1 833f c024 833f
00000190: 2b72 823f 25d7 823f ca9a 833f bc02 843f
000001a0: 0d78 833f 5fe2 823f 0a6b 833f fb2e 833f
000001b0: bc9d 823f 2eff 823f 64ce 823f 3d96 823f
000001c0: 6372 833f 9508 843f d6a2 833f a092 813f
000001d0: b2d4 823f ba7f 833f 3a06 843f 3927 833f
000001e0: ef1d 843f 864d 833f 6e32 833f b191 823f
000001f0: b035 833f 9b2a 833f c074 833f 3073 833f

cnn.14.bias f4 [128]
0.01033787 0.007893502 0.004752086 0.0080425935 0.013145616 0.009396448 0.009166801 0.007576826
0.015914047 0.0062008277 0.005935774 0.008208513 0.00810144 0.01518973 0.011318421 0.011230732
0.009006549 0.0076454794 0.010218564 0.010669832 0.014663128 0.007470925 0.0139164785 0.01305423
0.0052914647 0.011976415 0.011045171 0.012216329 0.008237973 0.0068645403 0.009428175 0.008612667
0.0072343093 0.008823428 0.009328769 0.0077945488 0.010710882 0.010892129 0.008844803 0.012912678
0.015533367 0.002401649 0.01375299 0.008497213 0.0074466174 0.0005518536 0.003074013 0.009653789
0.0058435868 0.014911336 0.004089122 0.009516307 0.008555688 0.008246015 0.012804851 0.009593809
0.0090620965 0.0074190754 0.004015064 0.0073675537 0.011895458 0.0017951282 0.007943745 0.0017141232
0.0038392707 0.008274957 0.009445705 0.010736457 -0.00065731263 0.005844494 0.007867963 0.009058019
-0.00059090497 0.0021373825 0.01273171 0.0036558611 0.009595366 0.014714789 -0.00020144347 0.0070903446
0.006805804 0.016431084 -0.00032820375 0.012405692 0.009829071 0.0025259207 0.013752082 0.020434331
0.010713308 0.0117697045 0.012076204 0.003308215 0.009711734 0.004934814 0.007565504 0.009757577
0.006577258 0.007382899 0.0073288856 0.008560363 0.0018738591 0.0056934124 0.010790251 0.00962316
0.008927356 0.007878007 0.008901318 0.007075225 0.0024490296 0.008484798 0.006198794 0.011189874
0.00579535 0.015417709 0.015406798 0.003736733 0.002299846 0.00923517 0.015718834 0.0038137394
0.00530108 0.0065165996 0.006453248 0.011539354 0.007195606 0.0075711044 0.0040544034 0.0026697395
00000000: 2b60 293c bf53 013c 63b7 9b3b 15c5 033c
00000010: b660 573c 8ff3 193c 5a30 163c 0647 f83b
00000020: 2d5e 823c 5030 cb3b e280 c23b 007d 063c
00000030: e7bb 043c 58de 783c e670 393c 1b01 383c
00000040: 3490 133c ee86 fa3b c46b 273c 85d0 2e3c
00000050: 9e3d 703c a9ce f43b f101 643c 69e1 553c
00000060: 0664 ad3b ba38 443c cef6 343c ff26 483c
00000070: 90f8 063c f0ef e03b a278 1a3c 251c 0d3c
00000080: c90d ed3b 2490 103c b1d7 183c 6a69 ff3b
00000090: b27c 2f3c e674 323c cbe9 103c b28f 533c
000000a0: aa7f 7e3c fc64 1d3b 3954 613c e537 0b3c
000000b0: c102 f43b 45aa 103a 6175 493b ed2a 1e3c
000000c0: 8f7b bf3b ad4e 743c 0bfe 853b 49ea 1b3c
000000d0: 282d 0c3c 4b1a 073c 70cb 513c 5a2f 1d3c
000000e0: 3079 143c b71b f33b cc90 833b 856b f13b
000000f0: 2be5 423c 824a eb3a 7b26 023c 6eac e03a
00000100: 469c 7b3b af93 073c 29c2 1a3c f7e7 2f3c
00000110: 814f 2cba 2b83 bf3b a1e8 003c 1668 143c
00000120: f6e6 1aba 5413 0c3b aa98 503c 2c97 6f3b
00000130: e235 1d3c 4c16 713c 923a 53b9 1f56 e83b
00000140: 3903 df3b 7b9a 863c c312 acb9 3e41 4b3c
00000150: 1d0a 213c eb89 253b 6a50 613c e665 a73c
00000160: df86 2f3c b8d5 403c 45db 453c a3ce 583b
00000170: f71d 1f3c 38b4 a13b 0ce8 f73b 3fde 1f3c
00000180: 0a86 d73b 3fec f13b 2627 f03b c440 0c3c
00000190: 479c f53a ce8f ba3b 98c9 303c 75aa 1d3c
000001a0: 0c44 123c c212 013c d5d6 113c 4ad7 e73b
000001b0: e67f 203b d203 0b3c 411f cb3b bc55 373c
000001c0: ebe6 bd3b 8f9a 7c3c cb6c 7c3c fae3 743b
000001d0: 03b9 163b 1c4f 173c c9c4 803c eeef 793b
000001e0: afb4 ad3b 3389 d53b c575 d33b 8f0f 3d3c
000001f0: 1ec9 eb3b 0717 f83b cdda 843b ccf6 2e3b

cnn.14.running_mean f4 [128]
-0.08014213 0.5063558 0.15693508 0.037430145 -0.26383305 1.2269406 0.071249135 -0.04460926
-0.29758102 0.64337087 0.5711181 0.28540403 0.10769465 0.19015591 -0.08103473 0.62061715
0.05231653 0.12664248 0.025764769 0.5988665 0.0334494 0.38486382 -0.12641433 0.013791459
0.8372788 0.9116711 0.29871327 -0.027690897 -0.2211038 -0.239865 0.29456222 -0.08729155
0.24280286 -0.018352512 0.23061378 -0.52364385 0.15356767 0.09954577 -0.27183652 -0.1302015
0.40889642 0.03731891 -0.25529116 0.0059456183 0.0030594317 0.3407583 -0.18168712 0.20639482
-0.30990395 -0.21067914 0.06826365 -0.13482518 -0.14262863 -0.005212485 0.23853005 -0.17816183
0.73533005 0.19156487 0.8367194 0.9661833 -0.33175683 -0.56237733 0.06446608 -0.18262838
0.11468385 0.036721043 0.26198673 0.40006196 0.198085 0.34475732 0.7021191 0.067802206
0.71982855 0.16622618 -0.1464982 0.6047534 -0.043585178 -0.26190075 0.018291205 0.22149412
0.43757272 0.24763606 -0.28015286 0.027265664 -0.18119013 0.052868597 -0.48380756 -0.40290263
0.18196036 0.13703242 -0.3153829 -0.25117218 -0.40721297 -0.048607405 -0.30499715 0.6945912
0.075439885 0.08979104 0.5841433 0.3808814 -0.2327537 -0.11690762 0.85353625 0.038540527
0.48164552 -0.057847 0.47597215 0.30191782 0.029664755 -0.41362447 0.12223742 -0.18323477
0.8489318 0.55000895 -0.16595131 0.47590715 0.2060011 0.5237707 -0.3099482 -0.09853341
0.23053747 0.26198098 -0.14113025 0.017247468 -0.65736544 -0.22016898 0.20739585 -0.10938099
00000000: 8f21 a4bd 89a0 013f 97b3 203e 5a50 193d
00000010: 2015 87be 640c 9d3f 11eb 913d 33b8 36bd
00000020: 8a5c 98be f4b3 243f cc34 123f 7a20 923e
00000030: 038f dc3d 3bb8 423e 89f5 a5bd c4e0 1e3f
00000040: dc49 563d 91ae 013e a310 d33c 514f 193f
00000050: 3d02 093d df0c c53e c272 01be 92f5 613c
00000060: e757 563f 4763 693f f2f0 983e 05d8 e2bc
00000070: 0969 62be 2c9f 75be dcd0 963e eac5 b2bd
00000080: 50a1 783e 0258 96bc 0526 6c3e 860d 06bf
00000090: d840 1d3e a7de cb3d 282e 8bbe 8b53 05be
000000a0: df5a d13e b7db 183d 86b5 82be 76d3 c23b
000000b0: bf80 483b df77 ae3e 300c 3abe 2a59 533e
000000c0: bbab 9ebe 46bc 57be d0cd 8b3d 9d0f 0abe
000000d0: 3d0d 12be 7ecd aabb 3941 743e 0e70 36be
000000e0: 973e 3c3f 9529 443e 3e33 563f ca57 773f
000000f0: 08dc a9be f6f7 0fbf cb06 843d ef02 3bbe
00000100: 5edf ea3d ce68 163d 2023 863e ecd4 cc3e
00000110: cbd6 4a3e 0884 b03e 14be 333f e2db 8a3d
00000120: af46 383f 3237 2a3e a003 16be 1ed1 1a3f
00000130: 5f86 32bd db17 86be 70d7 953c 5bcf 623e
00000140: 8809 e03e 4f94 7d3e 3270 8fbe 3e5c df3c
00000150: e889 39be be8c 583d a0b5 f7be 4149 cebe
00000160: d153 3a3e 3a52 0c3e de79 a1be a499 80be
00000170: 387e d0be 8f18 47bd 9628 9cbe bbd0 313f
00000180: 3a80 9a3d 5de4 b73d 6a8a 153f e302 c33e
00000190: fc56 6ebe 436d efbd 5a81 5a3f acdc 1d3d
000001a0: 3e9a f63e faf0 6cbd 9fb2 f33e f994 9a3e
000001b0: 8003 f33c 96c6 d3be 9d57 fa3d e5a1 3bbe
000001c0: 9853 593f 63cd 0c3f 24ef 29be 1aaa f33e
000001d0: f4f1 523e d615 063f 88b1 9ebe e2cb c9bd
000001e0: 0412 6c3e 5f22 863e 7384 10be 904a 8d3c
000001f0: 1a49 28bf fa73 61be 945f 543e 2403 e0bd
